app/src/main/assets/mnist.tflite (tflite, 116608 bytes, 6 tensors)

arith.constant5 f4 [10]
00000000: 377d 7a3c bf2d 333e 216e 033d 16df 62bd
00000010: dfa5 83bc 471f 4a3d 723d 98bc a5fa 803d
00000020: 5b12 06be eec2 4bbd
0.015288643 0.1749792 0.03208745 -0.055388533 -0.016070304 0.049346235 -0.018583987 0.06297807
-0.1309294 -0.049746446

arith.constant6 f4 [32, 3, 3, 1]
00000000: 8753 623e d7cc 293e 8176 e33a 51d5 973e
00000010: a6a6 11bc 4b10 94be de9a e53c dd82 8bbe
00000020: f8f0 9dbe d0a1 d5bd 9955 a2be 806e 2abe
00000030: c928 e33d 2438 89bc b701 a9bd d33e 303d
00000040: a90a 2c3e 0161 5a3e 602a 143e 2b4c 8c3d
00000050: a4c5 e73d 6544 2f3d 40e1 e4bd 7f2b a93d
00000060: ce26 a7be 0f59 18be ed29 6fbe 08f2 05bd
00000070: fc05 3fbe d96f 2fbe bf5b 3b3e 9013 733e
00000080: 4d6a 173e e197 69be 87c7 23be 185f 0cbd
00000090: 0453 88be a03f 49be fea6 fa3d 72bf 47be
000000a0: a988 95bd 7fae 4a3e 5b7f 22bd d4be eb3d
000000b0: 942a 8b3e ef7d 093e e3c2 e63d 7dd4 393e
000000c0: 742b 92bd 29e4 2ebd 4148 3c3e da13 a2be
000000d0: 14a6 5fbe adfd ea3d 09a0 c13d c59a 673d
000000e0: c63a 34be ac81 623d e5e7 283e e5e7 6ebe
000000f0: 4e96 d1bd f746 343e 7995 d0bd 3bf0 d83d
00000100: 11bc c8bd dccd a8be 1277 79bc b60f 3d3e
00000110: 3128 adbd ca92 833d 4587 143e b553 083e
00000120: 4346 603e dad6 9ebd 1432 a7be a287 f23d
00000130: 0dc3 7e3b 7cf3 42be 3ecf 503e 3c4d 2f3e
00000140: a365 863d 39fd 233e 9cd2 a2bd 7dd5 26be
00000150: 19fd 1a3e 18d6 bebd ad2a 67be 4525 8f3e
00000160: 0784 21bc 6389 97bd d51c 653d a53c 40bd
00000170: 9033 ee3d bda3 303e 3212 20be f102 04be
00000180: cfea 673e bea8 8c3d 42b0 703d e30f bbbd
00000190: 6277 9bbc b75f 353d 2825 ba3d ffae aa3c
000001a0: 3e2f 90bc dff9 05bd 0416 0bbe 0499 333d
000001b0: 968c 31bd 565b 803e ee2d 1d3e 3728 413e
000001c0: 844b 063e c65f 3fbd c8e0 12be e980 c8be
000001d0: 36a2 9dbe 1cde 20bd 75e7 163e 96dd c33d
000001e0: 9ad0 013e 4c5b 153c fcee 063e 3c35 c4be
000001f0: d743 4abe 7006 a0be 8e80 213e a8b5 6c3d
00000200: 02c3 70be c466 f03b 7b4c 9dbd cebc 22bd
00000210: 64fd 5ebe 13a4 eb3b 9d8f 2c3e 6dcd 22bd
00000220: 360f 8dbe e543 a6be 9f33 413d 557b fe3d
00000230: eb11 17be 2424 863e a792 5c3e e3dd 913d
00000240: eda9 833e af6c 5dbe 682d 3fbe f1f1 37be
00000250: 9952 13be b131 06be 0ea2 8b3c 5028 8d3e
00000260: 8979 803e 0994 c6bd 8511 83be 1f5b fc3c
00000270: 879c da3d d7f3 033d 4988 2a3e 2874 9bbc
00000280: b2f5 a03d 3a9e 553c 8fe0 633d 8b94 133e
00000290: dae8 3ebe d8f7 a8bd 40e8 183e a0ca 4bbe
000002a0: 4d71 02be c67f d43d fa6d 4b3d 019d ad3b
000002b0: 22ba c53c 6acd c4bd 3ccf ab3d 644e bdbd
000002c0: 8915 bd3d 38ac 203e 72a6 103e f54d fb3d
000002d0: f678 5fbe c646 70be c554 47be 0f48 673c
000002e0: 17c8 94bd 36af 363d 4f98 5e3e 3b44 4d3e
000002f0: 8c33 a93d 0750 2dbe 2cc5 b6bc 53ff 9c3e
00000300: 2d2a 05be eaa6 113e 005e 383e 0385 e13d
00000310: 2618 0cbe 04f0 21be b5a6 543e ab7c 903d
00000320: adf2 52bd 022b 14bd 2d65 9c3d dcfe 7cbc
00000330: 531e 8fbe f397 30bd 756b b93b e888 933e
00000340: ea39 883e d407 293d f5e0 20be 8491 183d
00000350: c4e1 e53c d13a d3be 3d3f 43be 6384 09bc
00000360: a1f3 8c3e b048 d0bd 9d25 d8bb 9d8d 333e
00000370: 5498 c7bd a7dc b7bd 4e81 0cbe 1ade b53d
00000380: 711d a23c 2d5b e9bc 5fc7 62bd 3237 b43d
00000390: 81b0 813c 0a0d 70bd 5cad 733c 97f8 8a3e
000003a0: d9ae 973d 065b 1ebe ee99 c23d 67e0 edbd
000003b0: 0069 f43d e539 15be 081a ac3d e608 fe3d
000003c0: 01e1 d03d 995e 1ebd c0ce 08be 84bb 42bc
000003d0: 4055 853c 038b 85be c1ca 32be a75a 1d3e
000003e0: be40 803d e94b 19be 3ad6 c4bd b664 7c3e
000003f0: 28fd 50bd 085e 7abd 63b4 073e 3d9b 403c
0.22102176 0.16582046 0.0017354043 0.29654935 -0.00888983 -0.2891868 0.028027948 -0.27248278
-0.30847907 -0.10431254 -0.3170593 -0.16643715 0.110917635 -0.016750403 -0.0825228 0.043028664
0.16800942 0.21326067 0.1446929 0.068504654 0.11316994 0.042789835 -0.111757755 0.08260249
-0.32646793 -0.14877723 -0.23355837 -0.032701522 -0.18654627 -0.1713251 0.18296717 0.23737931
0.14786644 -0.22811843 -0.15994082 -0.034270376 -0.26625836 -0.19653177 0.122388825 -0.19506624
-0.073014565 0.19793127 -0.039672237 0.11511007 0.27180922 0.13426946 0.112676404 0.18147464
-0.07137194 -0.04269806 0.18386938 -0.3165577 -0.21840698 0.11474166 0.094543524 0.056544084
-0.17600545 0.055299446 0.1649471 -0.23330648 -0.102337465 0.17605196 -0.1018476 0.10592695
-0.09801496 -0.32969558 -0.0152261425 0.18463024 -0.084549315 0.06424482 0.14504726 0.13313182
0.21901803 -0.077558234 -0.32655394 0.11842276 0.0038873584 -0.19038194 0.20391557 0.17119306
0.065623544 0.16014566 -0.07950327 -0.16292377 0.15135612 -0.09318179 -0.22574873 0.27958122
-0.009858138 -0.07399251 0.0559357 -0.046932835 0.116309285 0.17249961 -0.15631941 -0.12891747
0.22648166 0.068681225 0.058761843 -0.091338895 -0.018977825 0.044280734 0.09089118 0.020835398
-0.017600652 -0.032709 -0.13582617 0.0438471 -0.043346964 0.25069684 0.15349552 0.18862997
0.13114744 -0.046722196 -0.1434356 -0.3916085 -0.3078782 -0.03927432 0.14736731 0.095637485
0.12677231 0.009116005 0.13177103 -0.38321865 -0.19752441 -0.3125491 0.15771696 0.05779043
-0.2351189 0.0073364694 -0.07680603 -0.03973084 -0.21776348 0.00719119 0.16851659 -0.03974669
-0.27550668 -0.32473674 0.04716837 0.124258675 -0.14752929 0.26199448 0.21540318 0.071224
0.2571558 -0.21623491 -0.18669665 -0.17963387 -0.14386977 -0.13104893 0.017045047 0.27569818
0.25092724 -0.09696204 -0.25599304 0.030805169 0.106743865 0.032214966 0.16653551 -0.018976286
0.07859363 0.013038212 0.055634078 0.14412133 -0.18643513 -0.082503974 0.14932346 -0.19901514
-0.12738533 0.10375933 0.04966543 0.0052982573 0.024136607 -0.09609492 0.08389136 -0.092434675
0.09232623 0.15690696 0.14125994 0.122707285 -0.21823487 -0.23464498 -0.19465931 0.014116301
-0.072647266 0.044600688 0.21737789 0.20045559 0.08261785 -0.1692506 -0.022310816 0.30663547
-0.1300437 0.14223829 0.18004608 0.11011698 -0.13681087 -0.15814215 0.20766719 0.070550285
-0.051500965 -0.036173828 0.07636485 -0.015441623 -0.27952823 -0.04311366 0.005658562 0.2881539
0.26606685 0.04126723 -0.15710814 0.03724815 0.028061755 -0.4125581 -0.19067092 -0.00839338
0.27529624 -0.10170114 -0.0065962807 0.1753449 -0.09745851 -0.08977633 -0.13721201 0.08880253
0.01978943 -0.028485859 -0.055365916 0.0879959 0.015831234 -0.058606185 0.014872875 0.27142784
0.074063964 -0.1546441 0.09502016 -0.11615067 0.1193409 -0.14572866 0.084034026 0.12404041
0.10199166 -0.038664434 -0.13360119 -0.0118855275 0.016276002 -0.2608262 -0.17460157 0.15366612
0.062623486 -0.14970364 -0.09611173 0.24647793 -0.05102268 -0.06112483 0.13252406 0.011755762

arith.constant7 f4 [64]
00000000: 0b9c 3abd 33fd fbbd 9009 cebb 2f64 74ba
00000010: 809f 33bd 3b92 5cbc e72c b4bd fc4e 0dbd
00000020: df30 963b 9d66 a6bd 580d b4bc 7859 2ebd
00000030: 6f64 e4bc 2ad1 e0bc 73d3 abbd ab93 16bc
00000040: 0843 82bc 5bc9 42bc e23d ebbc 1156 593d
00000050: d93b 853c 185d 153d d45b a33c c87f f4bc
00000060: 86b9 c9bc 8aa3 91bd 9a55 9fbc ad10 95bd
00000070: f460 5cbd 3131 88bd a9cd 1abd e2c7 c1bc
00000080: acf0 0cbd 9ac6 74bc a46f 7abd 748c 97bb
00000090: 38b9 52bc 0bfa 12bb 5b15 01bd a77a 30bd
000000a0: a772 a9bc a514 10bd b47c efbc eeb6 993a
000000b0: 542b 77bc 79ea c23b 96c0 e9bc 5870 43bc
000000c0: f404 393c 701d bcbc 4952 0bbd 9793 69bc
000000d0: 731f e3bc 7015 54bd e744 48bd 8944 d6ba
000000e0: 50ae cabc f56d c73c 9cfd 943b 4e9a 63bd
000000f0: 4700 80bc c0f4 54bc 8327 823a 5ebd a9bd
-0.04555897 -0.12304153 -0.006287761 -0.000932279 -0.043853283 -0.013462598 -0.08797627 -0.034499153
0.0045834626 -0.08125041 -0.021979019 -0.042565793 -0.027879922 -0.027443487 -0.0838994 -0.00919048
-0.015901104 -0.011888827 -0.028716031 0.053060595 0.01626389 0.036465734 0.019941248 -0.029846087
-0.024624597 -0.07111271 -0.019449998 -0.07278571 -0.0538034 -0.066500075 -0.03779379 -0.023654882
-0.03440921 -0.014939928 -0.061141625 -0.0046248976 -0.012861542 -0.002242687 -0.031514507 -0.04308572
-0.020684553 -0.03517594 -0.029234268 0.0011727491 -0.015086014 0.0059483615 -0.028534215 -0.01192864
0.011292685 -0.022963256 -0.03401402 -0.01425638 -0.027724957 -0.051778257 -0.048893835 -0.0016347329
-0.024741322 0.024344424 0.004546834 -0.05556708 -0.015625132 -0.012997806 0.0009929988 -0.08288072

arith.constant8 f4 [32]
00000000: 8d94 f53c 04e8 083d 6db6 2c3d f408 91bc
00000010: 484b 56bc 03fb 74bc 562f 07bd 3645 1abd
00000020: 7cff 2dbd dcd0 3fbc 9624 98bd d17a 8bbd
00000030: 29dd 7dbb 9bc7 953b 3a5d 8dbc bf9e 493c
00000040: f057 d5bb a9a4 b7bd 79cd 8fbd 6bd7 b6bd
00000050: 6795 253d 3247 72bc 1e48 2b3c d7ed 81bb
00000060: 1da0 fdbc e0d2 b1bd 10ef 42bd 3d8b c9bc
00000070: a330 81bd f7e7 da3c 5871 9ebd be70 8e3c
0.029978061 0.033424392 0.042166162 -0.017704464 -0.013079472 -0.014952424 -0.033004127 -0.03766366
-0.042479977 -0.011707511 -0.07428853 -0.06810535 -0.0038736558 0.004570914 -0.017256368 0.012305914
-0.006510727 -0.08966953 -0.07021613 -0.089278065 0.040425684 -0.014787482 0.010454206 -0.0039651203
-0.030960137 -0.08682799 -0.04759127 -0.024602527 -0.06308105 0.026721938 -0.07736462 0.017387744

tfl.pseudo_qconst i1 [64, 3, 3, 32]
00000000: 09e2 311b ec10 0cfe 0826 0ce9 1d01 18fe
00000010: ec0b fbfd cffb 132d 130c 0403 1a04 fff1
00000020: dfd6 100f f625 c8f4 dacd 01fb ef07 fee6
00000030: ddff f804 d8f9 0d21 11fd 0ffd f8c2 eb00
00000040: a311 c219 effb f423 0dd4 f820 cad0 0c14
00000050: 0709 2922 ecd7 15fe fced ec0a fccf f301
00000060: 06b2 300d cc09 fed2 0eed daf8 1c16 23d6
00000070: ded0 ffd8 aa08 1328 1ce8 02f0 04fa ebc8
00000080: cdb1 2cfb 052e cbba c9cb fb0d de0a 01b9
00000090: bcf0 d9e4 c00e 140b fdd4 efe1 15a3 ee02
000000a0: 96c4 fd18 0b2f dc0a eccb dc16 d0ef 1afd
000000b0: b901 1921 b317 2210 def2 1b28 25af 0122
000000c0: f19b fbeb bc22 dfb5 e0bd b4f4 ddde 1d81
000000d0: e5b3 f9d0 95eb ef08 ebd2 bfeb d1c6 e5ee
000000e0: adcc ffc2 0628 e3e3 d2c6 d0fd ef0b f0e1
000000f0: e4eb dcf6 a007 0104 f6ed 09d3 eeca d6fc
9 -30 49 27 -20 16 12 -2
8 38 12 -23 29 1 24 -2
-20 11 -5 -3 -49 -5 19 45
19 12 4 3 26 4 -1 -15
-33 -42 16 15 -10 37 -56 -12
-38 -51 1 -5 -17 7 -2 -26
-35 -1 -8 4 -40 -7 13 33
17 -3 15 -3 -8 -62 -21 0
-93 17 -62 25 -17 -5 -12 35
13 -44 -8 32 -54 -48 12 20
7 9 41 34 -20 -41 21 -2
-4 -19 -20 10 -4 -49 -13 1
6 -78 48 13 -52 9 -2 -46
14 -19 -38 -8 28 22 35 -42
-34 -48 -1 -40 -86 8 19 40
28 -24 2 -16 4 -6 -21 -56
-51 -79 44 -5 5 46 -53 -70
-55 -53 -5 13 -34 10 1 -71
-68 -16 -39 -28 -64 14 20 11
-3 -44 -17 -31 21 -93 -18 2
-106 -60 -3 24 11 47 -36 10
-20 -53 -36 22 -48 -17 26 -3
-71 1 25 33 -77 23 34 16
-34 -14 27 40 37 -81 1 34
-15 -101 -5 -21 -68 34 -33 -75
-32 -67 -76 -12 -35 -34 29 -127
-27 -77 -7 -48 -107 -21 -17 8
-21 -46 -65 -21 -47 -58 -27 -18
-83 -52 -1 -62 6 40 -29 -29
-46 -58 -48 -3 -17 11 -16 -31
-28 -21 -36 -10 -96 7 1 4
-10 -19 9 -45 -18 -54 -42 -4

tfl.pseudo_qconst1 i1 [10, 9216]
00000000: e3f8 f604 e814 01fd f900 fafd f502 f90d
00000010: 06e7 06fe 0900 0001 ece6 f9fe 06f7 1501
00000020: 0ae7 f1e7 1029 eef6 f501 ffec 16ed 10e3
00000030: f7f9 fb08 06fc f2fb 0100 1fe5 d7e8 0704
00000040: 05f8 f3f8 d4f6 fb01 0101 f0f4 eaf6 f6d4
00000050: 030a f7f0 15f5 ec01 dade f709 ed03 f2f5
00000060: f8e9 f2f7 1a00 edee f7fc 05ff 20f0 f8e0
00000070: d7fb eff9 f9f6 f3e6 fdea 1ae7 f5df f3f6
00000080: def7 e3ee eff1 fef9 eff6 f2fc e001 00d9
00000090: f814 fcf8 15f9 f0fe f5de eefc f100 edfe
000000a0: f904 ebfd 1200 13e8 fcf8 01eb 2c03 01f9
000000b0: f002 dbe7 e7f4 faef f9f9 f1e3 f713 f713
000000c0: bb0a f3fa e3fe 0aea cc01 d5f6 f400 f0b5
000000d0: dbf5 fbef 0a04 01ef e4e3 f6e5 eae7 edf6
000000e0: eaf4 fc07 0621 f4ea e4f7 fc00 0d07 f503
000000f0: fc01 da04 ff00 ecf5 f4cd 0ee5 e4f9 f526
-29 -8 -10 4 -24 20 1 -3
-7 0 -6 -3 -11 2 -7 13
6 -25 6 -2 9 0 0 1
-20 -26 -7 -2 6 -9 21 1
10 -25 -15 -25 16 41 -18 -10
-11 1 -1 -20 22 -19 16 -29
-9 -7 -5 8 6 -4 -14 -5
1 0 31 -27 -41 -24 7 4
5 -8 -13 -8 -44 -10 -5 1
1 1 -16 -12 -22 -10 -10 -44
3 10 -9 -16 21 -11 -20 1
-38 -34 -9 9 -19 3 -14 -11
-8 -23 -14 -9 26 0 -19 -18
-9 -4 5 -1 32 -16 -8 -32
-41 -5 -17 -7 -7 -10 -13 -26
-3 -22 26 -25 -11 -33 -13 -10
-34 -9 -29 -18 -17 -15 -2 -7
-17 -10 -14 -4 -32 1 0 -39
-8 20 -4 -8 21 -7 -16 -2
-11 -34 -18 -4 -15 0 -19 -2
-7 4 -21 -3 18 0 19 -24
-4 -8 1 -21 44 3 1 -7
-16 2 -37 -25 -25 -12 -6 -17
-7 -7 -15 -29 -9 19 -9 19
-69 10 -13 -6 -29 -2 10 -22
-52 1 -43 -10 -12 0 -16 -75
-37 -11 -5 -17 10 4 1 -17
-28 -29 -10 -27 -22 -25 -19 -10
-22 -12 -4 7 6 33 -12 -22
-28 -9 -4 0 13 7 -11 3
-4 1 -38 4 -1 0 -20 -11
-12 -51 14 -27 -28 -7 -11 38
